…
2020-11-29 11:12:06.386394: I tensorflow/core/platform/profile_utils/cpu_utils.cc:104] CPU Frequency: 2400000000 Hz
2020-11-29 11:12:06.386762: I tensorflow/compiler/xla/service/service.cc:168] XLA service 0x492db70 initialized for platform Host (this does not guarantee that XLA will be used). Devices:
2020-11-29 11:12:06.386806: I tensorflow/compiler/xla/service/service.cc:176]   StreamExecutor device (0): Host, Default Version
Model: "sequential"
_________________________________________________________________
Layer (type)                 Output Shape              Param #   
=================================================================
conv2d (Conv2D)              (None, 28, 28, 32)        320       
_________________________________________________________________
batch_normalization (BatchNo (None, 28, 28, 32)        128       
_________________________________________________________________
max_pooling2d (MaxPooling2D) (None, 14, 14, 32)        0         
_________________________________________________________________
dropout (Dropout)            (None, 14, 14, 32)        0         
_________________________________________________________________
conv2d_1 (Conv2D)            (None, 14, 14, 64)        18496     
_________________________________________________________________
batch_normalization_1 (Batch (None, 14, 14, 64)        256       
_________________________________________________________________
max_pooling2d_1 (MaxPooling2 (None, 7, 7, 64)          0         
_________________________________________________________________
conv2d_2 (Conv2D)            (None, 7, 7, 128)         73856     
_________________________________________________________________
batch_normalization_2 (Batch (None, 7, 7, 128)         512       
_________________________________________________________________
conv2d_3 (Conv2D)            (None, 7, 7, 128)         147584    
_________________________________________________________________
batch_normalization_3 (Batch (None, 7, 7, 128)         512       
_________________________________________________________________
conv2d_4 (Conv2D)            (None, 7, 7, 64)          73792     
_________________________________________________________________
batch_normalization_4 (Batch (None, 7, 7, 64)          256       
_________________________________________________________________
up_sampling2d (UpSampling2D) (None, 14, 14, 64)        0         
_________________________________________________________________
conv2d_5 (Conv2D)            (None, 14, 14, 32)        18464     
_________________________________________________________________
batch_normalization_5 (Batch (None, 14, 14, 32)        128       
_________________________________________________________________
up_sampling2d_1 (UpSampling2 (None, 28, 28, 32)        0         
_________________________________________________________________
dropout_1 (Dropout)          (None, 28, 28, 32)        0         
_________________________________________________________________
conv2d_6 (Conv2D)            (None, 28, 28, 1)         289       
=================================================================
Total params: 334,593
Trainable params: 333,697
Non-trainable params: 896
_________________________________________________________________
Model: "functional_1"
_________________________________________________________________
Layer (type)                 Output Shape              Param #   
=================================================================
input_1 (InputLayer)         [(None, 28, 28, 1)]       0         
_________________________________________________________________
conv2d (Conv2D)              (None, 28, 28, 32)        320       
_________________________________________________________________
batch_normalization (BatchNo (None, 28, 28, 32)        128       
_________________________________________________________________
max_pooling2d (MaxPooling2D) (None, 14, 14, 32)        0         
_________________________________________________________________
dropout (Dropout)            (None, 14, 14, 32)        0         
_________________________________________________________________
conv2d_1 (Conv2D)            (None, 14, 14, 64)        18496     
_________________________________________________________________
batch_normalization_1 (Batch (None, 14, 14, 64)        256       
_________________________________________________________________
max_pooling2d_1 (MaxPooling2 (None, 7, 7, 64)          0         
_________________________________________________________________
conv2d_2 (Conv2D)            (None, 7, 7, 128)         73856     
_________________________________________________________________
batch_normalization_2 (Batch (None, 7, 7, 128)         512       
=================================================================
Total params: 93,568
Trainable params: 93,120
Non-trainable params: 448
_________________________________________________________________
2020-11-29 11:12:23.828498: W tensorflow/core/framework/cpu_allocator_impl.cc:81] Allocation of 1505280000 exceeds 10% of free system memory.
Do you want to set neurons in FC layer(y/n) n
…
1500/1500 [==============================] - 7s 5ms/step - loss: 0.0705 - categorical_accuracy: 0.9845 - val_loss: 0.2242 - val_categorical_accuracy: 0.9793
Model: "functional_3"
_________________________________________________________________
Layer (type)                 Output Shape              Param #   
=================================================================
input_2 (InputLayer)         [(None, 28, 28, 1)]       0         
_________________________________________________________________
conv2d (Conv2D)              (None, 28, 28, 32)        320       
_________________________________________________________________
batch_normalization (BatchNo (None, 28, 28, 32)        128       
_________________________________________________________________
max_pooling2d (MaxPooling2D) (None, 14, 14, 32)        0         
_________________________________________________________________
dropout (Dropout)            (None, 14, 14, 32)        0         
_________________________________________________________________
conv2d_1 (Conv2D)            (None, 14, 14, 64)        18496     
_________________________________________________________________
batch_normalization_1 (Batch (None, 14, 14, 64)        256       
_________________________________________________________________
max_pooling2d_1 (MaxPooling2 (None, 7, 7, 64)          0         
_________________________________________________________________
conv2d_2 (Conv2D)            (None, 7, 7, 128)         73856     
_________________________________________________________________
batch_normalization_2 (Batch (None, 7, 7, 128)         512       
_________________________________________________________________
flatten (Flatten)            (None, 6272)              0         
_________________________________________________________________
dense (Dense)                (None, 64)                401472    
_________________________________________________________________
dropoutFC (Dropout)          (None, 64)                0         
_________________________________________________________________
dense_1 (Dense)              (None, 10)                650       
=================================================================
Total params: 495,690
Trainable params: 495,242
Non-trainable params: 448
_________________________________________________________________
None
For merged model:
Give number of training epochs: 7
Give the batch size: 128   14  14  32
Epoch 1/7
   1/1500 [..............................] - ETA: 0s - 
…
1500/1500 [==============================] - 62s 42ms/step - loss: 0.0871 - categorical_accuracy: 0.9833 - val_loss: 0.1357 - val_categorical_accuracy: 0.9861
Model: "functional_3"
_________________________________________________________________
Layer (type)                 Output Shape              Param #   
=================================================================
input_2 (InputLayer)         [(None, 28, 28, 1)]       0         
_________________________________________________________________
conv2d (Conv2D)              (None, 28, 28, 32)        320       
_________________________________________________________________
batch_normalization (BatchNo (None, 28, 28, 32)        128       
_________________________________________________________________
max_pooling2d (MaxPooling2D) (None, 14, 14, 32)        0         
_________________________________________________________________
dropout (Dropout)            (None, 14, 14, 32)        0         
_________________________________________________________________
conv2d_1 (Conv2D)            (None, 14, 14, 64)        18496     
_________________________________________________________________
batch_normalization_1 (Batch (None, 14, 14, 64)        256       
_________________________________________________________________
max_pooling2d_1 (MaxPooling2 (None, 7, 7, 64)          0         
_________________________________________________________________
conv2d_2 (Conv2D)            (None, 7, 7, 128)         73856     
_________________________________________________________________
batch_normalization_2 (Batch (None, 7, 7, 128)         512       
_________________________________________________________________
flatten (Flatten)            (None, 6272)              0         
_________________________________________________________________
dense (Dense)                (None, 64)                401472    
_________________________________________________________________
dropoutFC (Dropout)          (None, 64)                0         
_________________________________________________________________
dense_1 (Dense)              (None, 10)                650       
=================================================================
Total params: 495,690
Trainable params: 495,242
Non-trainable params: 448
_________________________________________________________________
Do you want to show the loss and accuracy graphs?(y/n) n

Do you want to evaluate the model on test set?(y/n) y

Do you want to evaluate test set on pretrained-encoder
and trained classifier(choice 1) or in the merged model(choice 2)? 1
Model: "sequential"
_________________________________________________________________
Layer (type)                 Output Shape              Param #   
=================================================================
flatten (Flatten)            (None, 6272)              0         
_________________________________________________________________
dense (Dense)                (None, 64)                401472    
_________________________________________________________________
dropoutFC (Dropout)          (None, 64)                0         
_________________________________________________________________
dense_1 (Dense)              (None, 10)                650       
=================================================================
Total params: 402,122
Trainable params: 402,122
Non-trainable params: 0
_________________________________________________________________
Test Loss: 0.14362338185310364
Test Accuracy: 0.9854000210762024

Correctly predicted 9854 pictures.
Falsely predicted 146 pictures.
              precision    recall  f1-score   support
…
