…
2020-11-29 09:10:05.782169: I tensorflow/core/platform/profile_utils/cpu_utils.cc:104] CPU Frequency: 2400000000 Hz
2020-11-29 09:10:05.782463: I tensorflow/compiler/xla/service/service.cc:168] XLA service 0x61306d0 initialized for platform Host (this does not guarantee that XLA will be used). Devices:
2020-11-29 09:10:05.782494: I tensorflow/compiler/xla/service/service.cc:176]   StreamExecutor device (0): Host, Default Version
Model: "sequential"
_________________________________________________________________
Layer (type)                 Output Shape              Param #   
=================================================================
conv2d (Conv2D)              (None, 28, 28, 32)        320       
_________________________________________________________________
batch_normalization (BatchNo (None, 28, 28, 32)        128       
_________________________________________________________________
max_pooling2d (MaxPooling2D) (None, 14, 14, 32)        0         
_________________________________________________________________
dropout (Dropout)            (None, 14, 14, 32)        0         
_________________________________________________________________
conv2d_1 (Conv2D)            (None, 14, 14, 64)        18496     
_________________________________________________________________
batch_normalization_1 (Batch (None, 14, 14, 64)        256       
_________________________________________________________________
max_pooling2d_1 (MaxPooling2 (None, 7, 7, 64)          0         
_________________________________________________________________
conv2d_2 (Conv2D)            (None, 7, 7, 128)         73856     
_________________________________________________________________
batch_normalization_2 (Batch (None, 7, 7, 128)         512       
_________________________________________________________________
conv2d_3 (Conv2D)            (None, 7, 7, 128)         147584    
_________________________________________________________________
batch_normalization_3 (Batch (None, 7, 7, 128)         512       
_________________________________________________________________
conv2d_4 (Conv2D)            (None, 7, 7, 64)          73792     
_________________________________________________________________
batch_normalization_4 (Batch (None, 7, 7, 64)          256       
_________________________________________________________________
up_sampling2d (UpSampling2D) (None, 14, 14, 64)        0         
_________________________________________________________________
conv2d_5 (Conv2D)            (None, 14, 14, 32)        18464     
_________________________________________________________________
batch_normalization_5 (Batch (None, 14, 14, 32)        128       
_________________________________________________________________
up_sampling2d_1 (UpSampling2 (None, 28, 28, 32)        0         
_________________________________________________________________
dropout_1 (Dropout)          (None, 28, 28, 32)        0         
_________________________________________________________________
conv2d_6 (Conv2D)            (None, 28, 28, 1)         289       
=================================================================
Total params: 334,593
Trainable params: 333,697
Non-trainable params: 896
_________________________________________________________________
Model: "functional_1"
_________________________________________________________________
Layer (type)                 Output Shape              Param #   
=================================================================
input_1 (InputLayer)         [(None, 28, 28, 1)]       0         
_________________________________________________________________
conv2d (Conv2D)              (None, 28, 28, 32)        320       
_________________________________________________________________
batch_normalization (BatchNo (None, 28, 28, 32)        128       
_________________________________________________________________
max_pooling2d (MaxPooling2D) (None, 14, 14, 32)        0         
_________________________________________________________________
dropout (Dropout)            (None, 14, 14, 32)        0         
_________________________________________________________________
conv2d_1 (Conv2D)            (None, 14, 14, 64)        18496     
_________________________________________________________________
batch_normalization_1 (Batch (None, 14, 14, 64)        256       
_________________________________________________________________
max_pooling2d_1 (MaxPooling2 (None, 7, 7, 64)          0         
_________________________________________________________________
conv2d_2 (Conv2D)            (None, 7, 7, 128)         73856     
_________________________________________________________________
batch_normalization_2 (Batch (None, 7, 7, 128)         512       
=================================================================
Total params: 93,568
Trainable params: 93,120
Non-trainable params: 448
_________________________________________________________________
2020-11-29 09:10:51.861743: W tensorflow/core/framework/cpu_allocator_impl.cc:81] Allocation of 1505280000 exceeds 10% of free system memory.
3 Do you want to set neurons in FC layer(y/n) n
…
371/375 [============================>.] - ETA: 0s - loss: 0.0442 - categorical_accuracy: 0.9872
375/375 [==============================] - 4s 11ms/step - loss: 0.0439 - categorical_accuracy: 0.9873 - val_loss: 0.0999 - val_categorical_accuracy: 0.9815
Model: "functional_3"
_________________________________________________________________
Layer (type)                 Output Shape              Param #   
=================================================================
input_2 (InputLayer)         [(None, 28, 28, 1)]       0         
_________________________________________________________________
conv2d (Conv2D)              (None, 28, 28, 32)        320       
_________________________________________________________________
batch_normalization (BatchNo (None, 28, 28, 32)        128       
_________________________________________________________________
max_pooling2d (MaxPooling2D) (None, 14, 14, 32)        0         
_________________________________________________________________
dropout (Dropout)            (None, 14, 14, 32)        0         
_________________________________________________________________
conv2d_1 (Conv2D)            (None, 14, 14, 64)        18496     
_________________________________________________________________
batch_normalization_1 (Batch (None, 14, 14, 64)        256       
_________________________________________________________________
max_pooling2d_1 (MaxPooling2 (None, 7, 7, 64)          0         
_________________________________________________________________
conv2d_2 (Conv2D)            (None, 7, 7, 128)         73856     
_________________________________________________________________
batch_normalization_2 (Batch (None, 7, 7, 128)         512       
_________________________________________________________________
flatten (Flatten)            (None, 6272)              0         
_________________________________________________________________
dense (Dense)                (None, 64)                401472    
_________________________________________________________________
dropoutFC (Dropout)          (None, 64)                0         
_________________________________________________________________
dense_1 (Dense)              (None, 10)                650       
=================================================================
Total params: 495,690
Trainable params: 495,242
Non-trainable params: 448
_________________________________________________________________
None
For merged model:
Give number of training epochs: 3 10
Give the batch size: 128
Epoch 1/10

  1/375 [..............................] - ETA: 0s - loss: 0.1046 - categorical_accuracy: 0.9766
…
375/375 [==============================] - ETA: 0s - loss: 0.0310 - categorical_accuracy: 0.9914
375/375 [==============================] - 75s 200ms/step - loss: 0.0310 - categorical_accuracy: 0.9914 - val_loss: 0.1092 - val_categorical_accuracy: 0.9845
Model: "functional_3"
_________________________________________________________________
Layer (type)                 Output Shape              Param #   
=================================================================
input_2 (InputLayer)         [(None, 28, 28, 1)]       0         
_________________________________________________________________
conv2d (Conv2D)              (None, 28, 28, 32)        320       
_________________________________________________________________
batch_normalization (BatchNo (None, 28, 28, 32)        128       
_________________________________________________________________
max_pooling2d (MaxPooling2D) (None, 14, 14, 32)        0         
_________________________________________________________________
dropout (Dropout)            (None, 14, 14, 32)        0         
_________________________________________________________________
conv2d_1 (Conv2D)            (None, 14, 14, 64)        18496     
_________________________________________________________________
batch_normalization_1 (Batch (None, 14, 14, 64)        256       
_________________________________________________________________
max_pooling2d_1 (MaxPooling2 (None, 7, 7, 64)          0         
_________________________________________________________________
conv2d_2 (Conv2D)            (None, 7, 7, 128)         73856     
_________________________________________________________________
batch_normalization_2 (Batch (None, 7, 7, 128)         512       
_________________________________________________________________
flatten (Flatten)            (None, 6272)              0         
_________________________________________________________________
dense (Dense)                (None, 64)                401472    
_________________________________________________________________
dropoutFC (Dropout)          (None, 64)                0         
_________________________________________________________________
dense_1 (Dense)              (None, 10)                650       
=================================================================
Total params: 495,690
Trainable params: 495,242
Non-trainable params: 448
_________________________________________________________________
Do you want to show the loss and accuracy graphs?(y/n) y

Do you want to evaluate the model on test set?(y/n) y

Do you want to evaluate test set on pretrained-encoder
and trained classifier(choice 1) or in the merged model(choice 2)? 2
Model: "functional_3"
_________________________________________________________________
Layer (type)                 Output Shape              Param #   
=================================================================
input_2 (InputLayer)         [(None, 28, 28, 1)]       0         
_________________________________________________________________
conv2d (Conv2D)              (None, 28, 28, 32)        320       
_________________________________________________________________
batch_normalization (BatchNo (None, 28, 28, 32)        128       
_________________________________________________________________
max_pooling2d (MaxPooling2D) (None, 14, 14, 32)        0         
_________________________________________________________________
dropout (Dropout)            (None, 14, 14, 32)        0         
_________________________________________________________________
conv2d_1 (Conv2D)            (None, 14, 14, 64)        18496     
_________________________________________________________________
batch_normalization_1 (Batch (None, 14, 14, 64)        256       
_________________________________________________________________
max_pooling2d_1 (MaxPooling2 (None, 7, 7, 64)          0         
_________________________________________________________________
conv2d_2 (Conv2D)            (None, 7, 7, 128)         73856     
_________________________________________________________________
batch_normalization_2 (Batch (None, 7, 7, 128)         512       
_________________________________________________________________
flatten (Flatten)            (None, 6272)              0         
_________________________________________________________________
dense (Dense)                (None, 64)                401472    
_________________________________________________________________
dropoutFC (Dropout)          (None, 64)                0         
_________________________________________________________________
dense_1 (Dense)              (None, 10)                650       
=================================================================
Total params: 495,690
Trainable params: 495,242
Non-trainable params: 448
_________________________________________________________________
Test Loss: 0.10411370545625687
Test Accuracy: 0.9864000082015991

Correctly predicted 9864 pictures.
Falsely predicted 136 pictures.
         Precision    Recall  F1-Score  Support
…
