…
2020-12-01 01:01:00.060250: I tensorflow/core/platform/profile_utils/cpu_utils.cc:104] CPU Frequency: 2400000000 Hz
2020-12-01 01:01:00.060520: I tensorflow/compiler/xla/service/service.cc:168] XLA service 0x4e93d00 initialized for platform Host (this does not guarantee that XLA will be used). Devices:
2020-12-01 01:01:00.060557: I tensorflow/compiler/xla/service/service.cc:176]   StreamExecutor device (0): Host, Default Version
Model: "sequential"
_________________________________________________________________
Layer (type)                 Output Shape              Param #   
=================================================================
conv2d (Conv2D)              (None, 28, 28, 16)        160       
_________________________________________________________________
batch_normalization (BatchNo (None, 28, 28, 16)        64        
_________________________________________________________________
max_pooling2d (MaxPooling2D) (None, 14, 14, 16)        0         
_________________________________________________________________
conv2d_1 (Conv2D)            (None, 14, 14, 32)        4640      
_________________________________________________________________
batch_normalization_1 (Batch (None, 14, 14, 32)        128       
_________________________________________________________________
max_pooling2d_1 (MaxPooling2 (None, 7, 7, 32)          0         
_________________________________________________________________
conv2d_2 (Conv2D)            (None, 7, 7, 64)          18496     
_________________________________________________________________
batch_normalization_2 (Batch (None, 7, 7, 64)          256       
_________________________________________________________________
conv2d_3 (Conv2D)            (None, 7, 7, 64)          36928     
_________________________________________________________________
batch_normalization_3 (Batch (None, 7, 7, 64)          256       
_________________________________________________________________
conv2d_4 (Conv2D)            (None, 7, 7, 32)          18464     
_________________________________________________________________
batch_normalization_4 (Batch (None, 7, 7, 32)          128       
_________________________________________________________________
up_sampling2d (UpSampling2D) (None, 14, 14, 32)        0         
_________________________________________________________________
conv2d_5 (Conv2D)            (None, 14, 14, 16)        4624      
_________________________________________________________________
batch_normalization_5 (Batch (None, 14, 14, 16)        64        
_________________________________________________________________
up_sampling2d_1 (UpSampling2 (None, 28, 28, 16)        0         
_________________________________________________________________
conv2d_6 (Conv2D)            (None, 28, 28, 1)         145       
=================================================================
Total params: 84,353
Trainable params: 83,905
Non-trainable params: 448
_________________________________________________________________
Model: "functional_1"
_________________________________________________________________
Layer (type)                 Output Shape              Param #   
=================================================================
input_1 (InputLayer)         [(None, 28, 28, 1)]       0         
_________________________________________________________________
conv2d (Conv2D)              (None, 28, 28, 16)        160       
_________________________________________________________________
batch_normalization (BatchNo (None, 28, 28, 16)        64        
_________________________________________________________________
max_pooling2d (MaxPooling2D) (None, 14, 14, 16)        0         
_________________________________________________________________
conv2d_1 (Conv2D)            (None, 14, 14, 32)        4640      
_________________________________________________________________
batch_normalization_1 (Batch (None, 14, 14, 32)        128       
_________________________________________________________________
max_pooling2d_1 (MaxPooling2 (None, 7, 7, 32)          0         
_________________________________________________________________
conv2d_2 (Conv2D)            (None, 7, 7, 64)          18496     
_________________________________________________________________
batch_normalization_2 (Batch (None, 7, 7, 64)          256       
=================================================================
Total params: 23,744
Trainable params: 23,520
Non-trainable params: 224
_________________________________________________________________
2020-12-01 01:01:10.515007: W tensorflow/core/framework/cpu_allocator_impl.cc:81] Allocation of 752640000 exceeds 10% of free system memory.
Do you want to set neurons in FC layer(y/n) y
…
1500/1500 [==============================] - 4s 3ms/step - loss: 0.0374 - categorical_accuracy: 0.9923 - val_loss: 0.1655 - val_categorical_accuracy: 0.9812
Model: "functional_3"
_________________________________________________________________
Layer (type)                 Output Shape              Param #   
=================================================================
input_2 (InputLayer)         [(None, 28, 28, 1)]       0         
_________________________________________________________________
conv2d (Conv2D)              (None, 28, 28, 16)        160       
_________________________________________________________________
batch_normalization (BatchNo (None, 28, 28, 16)        64        
_________________________________________________________________
max_pooling2d (MaxPooling2D) (None, 14, 14, 16)        0         
_________________________________________________________________
conv2d_1 (Conv2D)            (None, 14, 14, 32)        4640      
_________________________________________________________________
batch_normalization_1 (Batch (None, 14, 14, 32)        128       
_________________________________________________________________
max_pooling2d_1 (MaxPooling2 (None, 7, 7, 32)          0         
_________________________________________________________________
conv2d_2 (Conv2D)            (None, 7, 7, 64)          18496     
_________________________________________________________________
batch_normalization_2 (Batch (None, 7, 7, 64)          256       
_________________________________________________________________
flatten (Flatten)            (None, 3136)              0         
_________________________________________________________________
dense (Dense)                (None, 64)                200768    
_________________________________________________________________
dropoutFC (Dropout)          (None, 64)                0         
_________________________________________________________________
dense_1 (Dense)              (None, 10)                650       
=================================================================
Total params: 225,162
Trainable params: 224,938
Non-trainable params: 224
_________________________________________________________________
None
For merged model:
Give number of training epochs: 5
Give the batch size: 32
Epoch 1/5
   1/1500 [..............................] - ETA: 0s - loss: 1.4529e-07 - categoric
…
1500/1500 [==============================] - 33s 22ms/step - loss: 0.0657 - categorical_accuracy: 0.9868 - val_loss: 0.1161 - val_categorical_accuracy: 0.9853
Model: "functional_3"
_________________________________________________________________
Layer (type)                 Output Shape              Param #   
=================================================================
input_2 (InputLayer)         [(None, 28, 28, 1)]       0         
_________________________________________________________________
conv2d (Conv2D)              (None, 28, 28, 16)        160       
_________________________________________________________________
batch_normalization (BatchNo (None, 28, 28, 16)        64        
_________________________________________________________________
max_pooling2d (MaxPooling2D) (None, 14, 14, 16)        0         
_________________________________________________________________
conv2d_1 (Conv2D)            (None, 14, 14, 32)        4640      
_________________________________________________________________
batch_normalization_1 (Batch (None, 14, 14, 32)        128       
_________________________________________________________________
max_pooling2d_1 (MaxPooling2 (None, 7, 7, 32)          0         
_________________________________________________________________
conv2d_2 (Conv2D)            (None, 7, 7, 64)          18496     
_________________________________________________________________
batch_normalization_2 (Batch (None, 7, 7, 64)          256       
_________________________________________________________________
flatten (Flatten)            (None, 3136)              0         
_________________________________________________________________
dense (Dense)                (None, 64)                200768    
_________________________________________________________________
dropoutFC (Dropout)          (None, 64)                0         
_________________________________________________________________
dense_1 (Dense)              (None, 10)                650       
=================================================================
Total params: 225,162
Trainable params: 224,938
Non-trainable params: 224
_________________________________________________________________
Do you want to show the loss and accuracy graphs?(y/n) n

Do you want to evaluate the model on test set?(y/n) y

Do you want to evaluate test set on pretrained-encoder
and trained classifier(choice 1) or in the merged model(choice 2)? 1
Model: "sequential"
_________________________________________________________________
Layer (type)                 Output Shape              Param #   
=================================================================
flatten (Flatten)            (None, 3136)              0         
_________________________________________________________________
dense (Dense)                (None, 64)                200768    
_________________________________________________________________
dropoutFC (Dropout)          (None, 64)                0         
_________________________________________________________________
dense_1 (Dense)              (None, 10)                650       
=================================================================
Total params: 201,418
Trainable params: 201,418
Non-trainable params: 0
_________________________________________________________________
Test Loss: 0.11276496946811676
Test Accuracy: 0.9854999780654907

Correctly predicted 9855 pictures.
Falsely predicted 145 pictures.
              precision    recall  f1-score   support
…
