…
2020-12-01 00:26:29.602301: I tensorflow/core/platform/profile_utils/cpu_utils.cc:104] CPU Frequency: 2400000000 Hz
2020-12-01 00:26:29.602806: I tensorflow/compiler/xla/service/service.cc:168] XLA service 0x57424e0 initialized for platform Host (this does not guarantee that XLA will be used). Devices:
2020-12-01 00:26:29.602861: I tensorflow/compiler/xla/service/service.cc:176]   StreamExecutor device (0): Host, Default Version
Model: "sequential"
_________________________________________________________________
Layer (type)                 Output Shape              Param #   
=================================================================
conv2d (Conv2D)              (None, 28, 28, 16)        160       
_________________________________________________________________
batch_normalization (BatchNo (None, 28, 28, 16)        64        
_________________________________________________________________
max_pooling2d (MaxPooling2D) (None, 14, 14, 16)        0         
_________________________________________________________________
conv2d_1 (Conv2D)            (None, 14, 14, 32)        4640      
_________________________________________________________________
batch_normalization_1 (Batch (None, 14, 14, 32)        128       
_________________________________________________________________
max_pooling2d_1 (MaxPooling2 (None, 7, 7, 32)          0         
_________________________________________________________________
dropout (Dropout)            (None, 7, 7, 32)          0         
_________________________________________________________________
conv2d_2 (Conv2D)            (None, 7, 7, 128)         36992     
_________________________________________________________________
batch_normalization_2 (Batch (None, 7, 7, 128)         512       
_________________________________________________________________
conv2d_3 (Conv2D)            (None, 7, 7, 128)         147584    
_________________________________________________________________
batch_normalization_3 (Batch (None, 7, 7, 128)         512       
_________________________________________________________________
conv2d_4 (Conv2D)            (None, 7, 7, 32)          36896     
_________________________________________________________________
batch_normalization_4 (Batch (None, 7, 7, 32)          128       
_________________________________________________________________
up_sampling2d (UpSampling2D) (None, 14, 14, 32)        0         
_________________________________________________________________
dropout_1 (Dropout)          (None, 14, 14, 32)        0         
_________________________________________________________________
conv2d_5 (Conv2D)            (None, 14, 14, 16)        4624      
_________________________________________________________________
batch_normalization_5 (Batch (None, 14, 14, 16)        64        
_________________________________________________________________
up_sampling2d_1 (UpSampling2 (None, 28, 28, 16)        0         
_________________________________________________________________
conv2d_6 (Conv2D)            (None, 28, 28, 1)         145       
=================================================================
Total params: 232,449
Trainable params: 231,745
Non-trainable params: 704
_________________________________________________________________
Model: "functional_1"
_________________________________________________________________
Layer (type)                 Output Shape              Param #   
=================================================================
input_1 (InputLayer)         [(None, 28, 28, 1)]       0         
_________________________________________________________________
conv2d (Conv2D)              (None, 28, 28, 16)        160       
_________________________________________________________________
batch_normalization (BatchNo (None, 28, 28, 16)        64        
_________________________________________________________________
max_pooling2d (MaxPooling2D) (None, 14, 14, 16)        0         
_________________________________________________________________
conv2d_1 (Conv2D)            (None, 14, 14, 32)        4640      
_________________________________________________________________
batch_normalization_1 (Batch (None, 14, 14, 32)        128       
_________________________________________________________________
max_pooling2d_1 (MaxPooling2 (None, 7, 7, 32)          0         
_________________________________________________________________
dropout (Dropout)            (None, 7, 7, 32)          0         
_________________________________________________________________
conv2d_2 (Conv2D)            (None, 7, 7, 128)         36992     
_________________________________________________________________
batch_normalization_2 (Batch (None, 7, 7, 128)         512       
=================================================================
Total params: 42,496
Trainable params: 42,144
Non-trainable params: 352
_________________________________________________________________
2020-12-01 00:26:42.371203: W tensorflow/core/framework/cpu_allocator_impl.cc:81] Allocation of 1505280000 exceeds 10% of free system memory.
Do you want to set neurons in FC layer(y/n) y
…
750/750 [==============================] - 5s 6ms/step - loss: 0.0219 - categorical_accuracy: 0.9947 - val_loss: 0.1422 - val_categorical_accuracy: 0.9830
Model: "functional_3"
_________________________________________________________________
Layer (type)                 Output Shape              Param #   
=================================================================
input_2 (InputLayer)         [(None, 28, 28, 1)]       0         
_________________________________________________________________
conv2d (Conv2D)              (None, 28, 28, 16)        160       
_________________________________________________________________
batch_normalization (BatchNo (None, 28, 28, 16)        64        
_________________________________________________________________
max_pooling2d (MaxPooling2D) (None, 14, 14, 16)        0         
_________________________________________________________________
conv2d_1 (Conv2D)            (None, 14, 14, 32)        4640      
_________________________________________________________________
batch_normalization_1 (Batch (None, 14, 14, 32)        128       
_________________________________________________________________
max_pooling2d_1 (MaxPooling2 (None, 7, 7, 32)          0         
_________________________________________________________________
dropout (Dropout)            (None, 7, 7, 32)          0         
_________________________________________________________________
conv2d_2 (Conv2D)            (None, 7, 7, 128)         36992     
_________________________________________________________________
batch_normalization_2 (Batch (None, 7, 7, 128)         512       
_________________________________________________________________
flatten (Flatten)            (None, 6272)              0         
_________________________________________________________________
dense (Dense)                (None, 64)                401472    
_________________________________________________________________
dropoutFC (Dropout)          (None, 64)                0         
_________________________________________________________________
dense_1 (Dense)              (None, 10)                650       
=================================================================
Total params: 444,618
Trainable params: 444,266
Non-trainable params: 352
_________________________________________________________________
None
For merged model:
Give number of training epochs: 5
Give the batch size: 64
Epoch 1/5
  1/750 [..............................] - ETA: 0s - loss: 0.0205 - categorical_acc
…
750/750 [==============================] - 34s 46ms/step - loss: 0.0510 - categorical_accuracy: 0.9894 - val_loss: 0.0986 - val_categorical_accuracy: 0.9880
Model: "functional_3"
_________________________________________________________________
Layer (type)                 Output Shape              Param #   
=================================================================
input_2 (InputLayer)         [(None, 28, 28, 1)]       0         
_________________________________________________________________
conv2d (Conv2D)              (None, 28, 28, 16)        160       
_________________________________________________________________
batch_normalization (BatchNo (None, 28, 28, 16)        64        
_________________________________________________________________
max_pooling2d (MaxPooling2D) (None, 14, 14, 16)        0         
_________________________________________________________________
conv2d_1 (Conv2D)            (None, 14, 14, 32)        4640      
_________________________________________________________________
batch_normalization_1 (Batch (None, 14, 14, 32)        128       
_________________________________________________________________
max_pooling2d_1 (MaxPooling2 (None, 7, 7, 32)          0         
_________________________________________________________________
dropout (Dropout)            (None, 7, 7, 32)          0         
_________________________________________________________________
conv2d_2 (Conv2D)            (None, 7, 7, 128)         36992     
_________________________________________________________________
batch_normalization_2 (Batch (None, 7, 7, 128)         512       
_________________________________________________________________
flatten (Flatten)            (None, 6272)              0         
_________________________________________________________________
dense (Dense)                (None, 64)                401472    
_________________________________________________________________
dropoutFC (Dropout)          (None, 64)                0         
_________________________________________________________________
dense_1 (Dense)              (None, 10)                650       
=================================================================
Total params: 444,618
Trainable params: 444,266
Non-trainable params: 352
_________________________________________________________________
Do you want to show the loss and accuracy graphs?(y/n) n

Do you want to evaluate the model on test set?(y/n) y

Do you want to evaluate test set on pretrained-encoder
and trained classifier(choice 1) or in the merged model(choice 2)? 1
Model: "sequential"
_________________________________________________________________
Layer (type)                 Output Shape              Param #   
=================================================================
flatten (Flatten)            (None, 6272)              0         
_________________________________________________________________
dense (Dense)                (None, 64)                401472    
_________________________________________________________________
dropoutFC (Dropout)          (None, 64)                0         
_________________________________________________________________
dense_1 (Dense)              (None, 10)                650       
=================================================================
Total params: 402,122
Trainable params: 402,122
Non-trainable params: 0
_________________________________________________________________
Test Loss: 0.14229552447795868
Test Accuracy: 0.9829000234603882

Correctly predicted 9829 pictures.
Falsely predicted 171 pictures.
              precision    recall  f1-score   support
…
