…
2020-11-30 22:51:21.200351: I tensorflow/core/platform/profile_utils/cpu_utils.cc:104] CPU Frequency: 2400000000 Hz
2020-11-30 22:51:21.200770: I tensorflow/compiler/xla/service/service.cc:168] XLA service 0x54282d0 initialized for platform Host (this does not guarantee that XLA will be used). Devices:
2020-11-30 22:51:21.200800: I tensorflow/compiler/xla/service/service.cc:176]   StreamExecutor device (0): Host, Default Version
Model: "sequential"
_________________________________________________________________
Layer (type)                 Output Shape              Param #   
=================================================================
conv2d (Conv2D)              (None, 28, 28, 16)        160       
_________________________________________________________________
batch_normalization (BatchNo (None, 28, 28, 16)        64        
_________________________________________________________________
conv2d_1 (Conv2D)            (None, 28, 28, 32)        4640      
_________________________________________________________________
batch_normalization_1 (Batch (None, 28, 28, 32)        128       
_________________________________________________________________
max_pooling2d (MaxPooling2D) (None, 14, 14, 32)        0         
_________________________________________________________________
conv2d_2 (Conv2D)            (None, 14, 14, 64)        18496     
_________________________________________________________________
batch_normalization_2 (Batch (None, 14, 14, 64)        256       
_________________________________________________________________
max_pooling2d_1 (MaxPooling2 (None, 7, 7, 64)          0         
_________________________________________________________________
conv2d_3 (Conv2D)            (None, 7, 7, 128)         73856     
_________________________________________________________________
batch_normalization_3 (Batch (None, 7, 7, 128)         512       
_________________________________________________________________
conv2d_4 (Conv2D)            (None, 7, 7, 128)         147584    
_________________________________________________________________
batch_normalization_4 (Batch (None, 7, 7, 128)         512       
_________________________________________________________________
conv2d_5 (Conv2D)            (None, 7, 7, 64)          73792     
_________________________________________________________________
batch_normalization_5 (Batch (None, 7, 7, 64)          256       
_________________________________________________________________
up_sampling2d (UpSampling2D) (None, 14, 14, 64)        0         
_________________________________________________________________
conv2d_6 (Conv2D)            (None, 14, 14, 32)        18464     
_________________________________________________________________
batch_normalization_6 (Batch (None, 14, 14, 32)        128       
_________________________________________________________________
up_sampling2d_1 (UpSampling2 (None, 28, 28, 32)        0         
_________________________________________________________________
conv2d_7 (Conv2D)            (None, 28, 28, 16)        4624      
_________________________________________________________________
batch_normalization_7 (Batch (None, 28, 28, 16)        64        
_________________________________________________________________
conv2d_8 (Conv2D)            (None, 28, 28, 1)         145       
=================================================================
Total params: 343,681
Trainable params: 342,721
Non-trainable params: 960
_________________________________________________________________
Model: "functional_1"
_________________________________________________________________
Layer (type)                 Output Shape              Param #   
=================================================================
input_1 (InputLayer)         [(None, 28, 28, 1)]       0         
_________________________________________________________________
conv2d (Conv2D)              (None, 28, 28, 16)        160       
_________________________________________________________________
batch_normalization (BatchNo (None, 28, 28, 16)        64        
_________________________________________________________________
conv2d_1 (Conv2D)            (None, 28, 28, 32)        4640      
_________________________________________________________________
batch_normalization_1 (Batch (None, 28, 28, 32)        128       
_________________________________________________________________
max_pooling2d (MaxPooling2D) (None, 14, 14, 32)        0         
_________________________________________________________________
conv2d_2 (Conv2D)            (None, 14, 14, 64)        18496     
_________________________________________________________________
batch_normalization_2 (Batch (None, 14, 14, 64)        256       
_________________________________________________________________
max_pooling2d_1 (MaxPooling2 (None, 7, 7, 64)          0         
_________________________________________________________________
conv2d_3 (Conv2D)            (None, 7, 7, 128)         73856     
_________________________________________________________________
batch_normalization_3 (Batch (None, 7, 7, 128)         512       
=================================================================
Total params: 98,112
Trainable params: 97,632
Non-trainable params: 480
_________________________________________________________________
2020-11-30 22:51:46.272279: W tensorflow/core/framework/cpu_allocator_impl.cc:81] Allocation of 1505280000 exceeds 10% of free system memory.
Do you want to set neurons in FC layer(y/n) n y

Give number of neurons: 64

Do you want to add a Dropout layer in Flatten layer(y/n) n

Do you want to add a Dropout layer in FC layer(y/n) n

Give number of training epochs: 10

Give the batch size: 32

index:  10

Model: "sequential"
_________________________________________________________________
Layer (type)                 Output Shape              Param #   
=================================================================
flatten (Flatten)            (None, 6272)              0         
_________________________________________________________________
dense (Dense)                (None, 64)                401472    
_________________________________________________________________
dense_1 (Dense)              (None, 10)                650       
=================================================================
Total params: 402,122
Trainable params: 402,122
Non-trainable params: 0
_________________________________________________________________
2020-11-30 22:52:03.709750: W tensorflow/core/framework/cpu_allocator_impl.cc:81] Allocation of 1204224000 exceeds 10% of free system memory.
Epoch 1/10
   1/1500 [...............
…
1500/1500 [==============================] - 7s 5ms/step - loss: 0.0224 - categorical_accuracy: 0.9952 - val_loss: 0.2005 - val_categorical_accuracy: 0.9818
Model: "functional_3"
_________________________________________________________________
Layer (type)                 Output Shape              Param #   
=================================================================
input_2 (InputLayer)         [(None, 28, 28, 1)]       0         
_________________________________________________________________
conv2d (Conv2D)              (None, 28, 28, 16)        160       
_________________________________________________________________
batch_normalization (BatchNo (None, 28, 28, 16)        64        
_________________________________________________________________
conv2d_1 (Conv2D)            (None, 28, 28, 32)        4640      
_________________________________________________________________
batch_normalization_1 (Batch (None, 28, 28, 32)        128       
_________________________________________________________________
max_pooling2d (MaxPooling2D) (None, 14, 14, 32)        0         
_________________________________________________________________
conv2d_2 (Conv2D)            (None, 14, 14, 64)        18496     
_________________________________________________________________
batch_normalization_2 (Batch (None, 14, 14, 64)        256       
_________________________________________________________________
max_pooling2d_1 (MaxPooling2 (None, 7, 7, 64)          0         
_________________________________________________________________
conv2d_3 (Conv2D)            (None, 7, 7, 128)         73856     
_________________________________________________________________
batch_normalization_3 (Batch (None, 7, 7, 128)         512       
_________________________________________________________________
flatten (Flatten)            (None, 6272)              0         
_________________________________________________________________
dense (Dense)                (None, 64)                401472    
_________________________________________________________________
dense_1 (Dense)              (None, 10)                650       
=================================================================
Total params: 500,234
Trainable params: 499,754
Non-trainable params: 480
_________________________________________________________________
None
For merged model:
Give number of training epochs: 5
Give the batch size: 32
Epoch 1/5
   1/1500 [..............................] - ETA: 0s - loss: 2.3842e-07 - categoric
…
1500/1500 [==============================] - 89s 59ms/step - loss: 0.0370 - categorical_accuracy: 0.9943 - val_loss: 0.1364 - val_categorical_accuracy: 0.9863
Model: "functional_3"
_________________________________________________________________
Layer (type)                 Output Shape              Param #   
=================================================================
input_2 (InputLayer)         [(None, 28, 28, 1)]       0         
_________________________________________________________________
conv2d (Conv2D)              (None, 28, 28, 16)        160       
_________________________________________________________________
batch_normalization (BatchNo (None, 28, 28, 16)        64        
_________________________________________________________________
conv2d_1 (Conv2D)            (None, 28, 28, 32)        4640      
_________________________________________________________________
batch_normalization_1 (Batch (None, 28, 28, 32)        128       
_________________________________________________________________
max_pooling2d (MaxPooling2D) (None, 14, 14, 32)        0         
_________________________________________________________________
conv2d_2 (Conv2D)            (None, 14, 14, 64)        18496     
_________________________________________________________________
batch_normalization_2 (Batch (None, 14, 14, 64)        256       
_________________________________________________________________
max_pooling2d_1 (MaxPooling2 (None, 7, 7, 64)          0         
_________________________________________________________________
conv2d_3 (Conv2D)            (None, 7, 7, 128)         73856     
_________________________________________________________________
batch_normalization_3 (Batch (None, 7, 7, 128)         512       
_________________________________________________________________
flatten (Flatten)            (None, 6272)              0         
_________________________________________________________________
dense (Dense)                (None, 64)                401472    
_________________________________________________________________
dense_1 (Dense)              (None, 10)                650       
=================================================================
Total params: 500,234
Trainable params: 499,754
Non-trainable params: 480
_________________________________________________________________
Do you want to show the loss and accuracy graphs?(y/n) n

Do you want to evaluate the model on test set?(y/n) y

Do you want to evaluate test set on pretrained-encoder
and trained classifier(choice 1) or in the merged model(choice 2)? 1
Model: "sequential"
_________________________________________________________________
Layer (type)                 Output Shape              Param #   
=================================================================
flatten (Flatten)            (None, 6272)              0         
_________________________________________________________________
dense (Dense)                (None, 64)                401472    
_________________________________________________________________
dense_1 (Dense)              (None, 10)                650       
=================================================================
Total params: 402,122
Trainable params: 402,122
Non-trainable params: 0
_________________________________________________________________
Test Loss: 0.121749646961689
Test Accuracy: 0.9861000180244446

Correctly predicted 9861 pictures.
Falsely predicted 139 pictures.
              precision    recall  f1-score   support
…
