…
2020-12-01 10:13:06.526134: I tensorflow/core/platform/profile_utils/cpu_utils.cc:104] CPU Frequency: 2400000000 Hz
2020-12-01 10:13:06.526484: I tensorflow/compiler/xla/service/service.cc:168] XLA service 0x558d220 initialized for platform Host (this does not guarantee that XLA will be used). Devices:
2020-12-01 10:13:06.526502: I tensorflow/compiler/xla/service/service.cc:176]   StreamExecutor device (0): Host, Default Version
Model: "sequential"
_________________________________________________________________
Layer (type)                 Output Shape              Param #   
=================================================================
conv2d (Conv2D)              (None, 28, 28, 32)        320       
_________________________________________________________________
batch_normalization (BatchNo (None, 28, 28, 32)        128       
_________________________________________________________________
max_pooling2d (MaxPooling2D) (None, 14, 14, 32)        0         
_________________________________________________________________
conv2d_1 (Conv2D)            (None, 14, 14, 64)        18496     
_________________________________________________________________
batch_normalization_1 (Batch (None, 14, 14, 64)        256       
_________________________________________________________________
max_pooling2d_1 (MaxPooling2 (None, 7, 7, 64)          0         
_________________________________________________________________
conv2d_2 (Conv2D)            (None, 7, 7, 128)         73856     
_________________________________________________________________
batch_normalization_2 (Batch (None, 7, 7, 128)         512       
_________________________________________________________________
conv2d_3 (Conv2D)            (None, 7, 7, 128)         147584    
_________________________________________________________________
batch_normalization_3 (Batch (None, 7, 7, 128)         512       
_________________________________________________________________
conv2d_4 (Conv2D)            (None, 7, 7, 64)          73792     
_________________________________________________________________
batch_normalization_4 (Batch (None, 7, 7, 64)          256       
_________________________________________________________________
up_sampling2d (UpSampling2D) (None, 14, 14, 64)        0         
_________________________________________________________________
conv2d_5 (Conv2D)            (None, 14, 14, 32)        18464     
_________________________________________________________________
batch_normalization_5 (Batch (None, 14, 14, 32)        128       
_________________________________________________________________
up_sampling2d_1 (UpSampling2 (None, 28, 28, 32)        0         
_________________________________________________________________
conv2d_6 (Conv2D)            (None, 28, 28, 1)         289       
=================================================================
Total params: 334,593
Trainable params: 333,697
Non-trainable params: 896
_________________________________________________________________
Model: "functional_1"
_________________________________________________________________
Layer (type)                 Output Shape              Param #   
=================================================================
input_1 (InputLayer)         [(None, 28, 28, 1)]       0         
_________________________________________________________________
conv2d (Conv2D)              (None, 28, 28, 32)        320       
_________________________________________________________________
batch_normalization (BatchNo (None, 28, 28, 32)        128       
_________________________________________________________________
max_pooling2d (MaxPooling2D) (None, 14, 14, 32)        0         
_________________________________________________________________
conv2d_1 (Conv2D)            (None, 14, 14, 64)        18496     
_________________________________________________________________
batch_normalization_1 (Batch (None, 14, 14, 64)        256       
_________________________________________________________________
max_pooling2d_1 (MaxPooling2 (None, 7, 7, 64)          0         
_________________________________________________________________
conv2d_2 (Conv2D)            (None, 7, 7, 128)         73856     
_________________________________________________________________
batch_normalization_2 (Batch (None, 7, 7, 128)         512       
=================================================================
Total params: 93,568
Trainable params: 93,120
Non-trainable params: 448
_________________________________________________________________
2020-12-01 10:13:24.048023: W tensorflow/core/framework/cpu_allocator_impl.cc:81] Allocation of 1505280000 exceeds 10% of free system memory.
Do you want to set neurons in FC layer(y/n) y
…
1500/1500 [==============================] - 27s 18ms/step - loss: 0.0553 - categorical_accuracy: 0.9920 - val_loss: 0.2597 - val_categorical_accuracy: 0.9802
Model: "functional_3"
_________________________________________________________________
Layer (type)                 Output Shape              Param #   
=================================================================
input_2 (InputLayer)         [(None, 28, 28, 1)]       0         
_________________________________________________________________
conv2d (Conv2D)              (None, 28, 28, 32)        320       
_________________________________________________________________
batch_normalization (BatchNo (None, 28, 28, 32)        128       
_________________________________________________________________
max_pooling2d (MaxPooling2D) (None, 14, 14, 32)        0         
_________________________________________________________________
conv2d_1 (Conv2D)            (None, 14, 14, 64)        18496     
_________________________________________________________________
batch_normalization_1 (Batch (None, 14, 14, 64)        256       
_________________________________________________________________
max_pooling2d_1 (MaxPooling2 (None, 7, 7, 64)          0         
_________________________________________________________________
conv2d_2 (Conv2D)            (None, 7, 7, 128)         73856     
_________________________________________________________________
batch_normalization_2 (Batch (None, 7, 7, 128)         512       
_________________________________________________________________
flatten (Flatten)            (None, 6272)              0         
_________________________________________________________________
dense (Dense)                (None, 256)               1605888   
_________________________________________________________________
dropoutFC (Dropout)          (None, 256)               0         
_________________________________________________________________
dense_1 (Dense)              (None, 10)                2570      
=================================================================
Total params: 1,702,026
Trainable params: 1,701,578
Non-trainable params: 448
_________________________________________________________________
None
For merged model:
Give number of training epochs: 5
Give the batch size: 21  32
Epoch 1/5
   1/1500 [..............................] - ETA: 0s - loss: 1.2363 - ca
…
1500/1500 [==============================] - 78s 52ms/step - loss: 0.0623 - categorical_accuracy: 0.9911 - val_loss: 0.1025 - val_categorical_accuracy: 0.9877
Model: "functional_3"
_________________________________________________________________
Layer (type)                 Output Shape              Param #   
=================================================================
input_2 (InputLayer)         [(None, 28, 28, 1)]       0         
_________________________________________________________________
conv2d (Conv2D)              (None, 28, 28, 32)        320       
_________________________________________________________________
batch_normalization (BatchNo (None, 28, 28, 32)        128       
_________________________________________________________________
max_pooling2d (MaxPooling2D) (None, 14, 14, 32)        0         
_________________________________________________________________
conv2d_1 (Conv2D)            (None, 14, 14, 64)        18496     
_________________________________________________________________
batch_normalization_1 (Batch (None, 14, 14, 64)        256       
_________________________________________________________________
max_pooling2d_1 (MaxPooling2 (None, 7, 7, 64)          0         
_________________________________________________________________
conv2d_2 (Conv2D)            (None, 7, 7, 128)         73856     
_________________________________________________________________
batch_normalization_2 (Batch (None, 7, 7, 128)         512       
_________________________________________________________________
flatten (Flatten)            (None, 6272)              0         
_________________________________________________________________
dense (Dense)                (None, 256)               1605888   
_________________________________________________________________
dropoutFC (Dropout)          (None, 256)               0         
_________________________________________________________________
dense_1 (Dense)              (None, 10)                2570      
=================================================================
Total params: 1,702,026
Trainable params: 1,701,578
Non-trainable params: 448
_________________________________________________________________
Do you want to show the loss and accuracy graphs?(y/n) n

Do you want to evaluate the model on test set?(y/n) y

Do you want to evaluate test set on pretrained-encoder
and trained classifier(choice 1) or in the merged model(choice 2)? 1
Model: "sequential"
_________________________________________________________________
Layer (type)                 Output Shape              Param #   
=================================================================
flatten (Flatten)            (None, 6272)              0         
_________________________________________________________________
dense (Dense)                (None, 256)               1605888   
_________________________________________________________________
dropoutFC (Dropout)          (None, 256)               0         
_________________________________________________________________
dense_1 (Dense)              (None, 10)                2570      
=================================================================
Total params: 1,608,458
Trainable params: 1,608,458
Non-trainable params: 0
_________________________________________________________________
Test Loss: 0.15479710698127747
Test Accuracy: 0.9850999712944031

Correctly predicted 9851 pictures.
Falsely predicted 149 pictures.
              precision    recall  f1-score   support
…
